model.onnx (onnx, 142307 bytes, 8 tensors)

sequential/dense/MatMul/ReadVariableOp:0 f4 [50, 15]
000000 60 3c 03 3c 22 60 54 3e 9c 20 98 be f0 3a fa bd
       0.00801 0.20739797 -0.2971238 -0.12218273
000010 cc 0d 11 be 4c 1d 87 3e 55 16 9d bd cc 6c 21 bd
       -0.1416542 0.2638954 -0.07670275 -0.039410397
000020 86 d5 34 be 02 49 7e 3e e7 2d 3c 3e b3 8d 82 be
       -0.17659578 0.24832538 0.18376885 -0.25498733
000030 e9 ea b9 3d b8 40 58 be 4f 46 bf bd 57 03 7b be
       0.09078009 -0.21118438 -0.09339582 -0.24512993
000040 11 66 fa ba 1b 8d 9e be 20 a1 8d 3e a3 69 de 3d
       -0.0019103904 -0.3096703 0.2766199 0.10859992
000050 df 2b 84 be ae 09 78 be e3 1a 60 3d c0 f6 c0 3b
       -0.2581472 -0.24222443 0.05471314 0.00588879
000060 62 f8 d1 bc 08 b3 e6 bc e5 86 6e 3d 00 a9 3f 3d
       -0.025631133 -0.02816154 0.058234114 0.04679203
000070 3f d8 7a be 18 55 a1 bd ce f6 b9 bd 70 66 81 be
       -0.24496554 -0.078775585 -0.090802774 -0.25273466
000080 6e 68 ac 3e 4d 41 bd 3c 2c 10 15 be ab c4 8d bd
       0.33673424 0.023102427 -0.1455695 -0.06922277
000090 9f c9 7b be 0f 4b 3b be 81 b1 ac 3c 0b a4 6b 3e
       -0.24588631 -0.18290351 0.021080734 0.23011796
0000a0 68 cb 81 3d 62 c1 63 be 62 1f aa bd 62 b7 fc bd
       0.06337625 -0.22241738 -0.08306767 -0.12339665
0000b0 c4 bc 1b be a1 b7 af bc 18 ff 7d 3d 78 de de 3c
       -0.15208727 -0.021449866 0.062010854 0.02720569
0000c0 03 5a 91 be 13 3a 5d be 70 71 1f 3e bb 37 5c 3e
       -0.28388986 -0.21604185 0.15570617 0.21505634
0000d0 4b 65 52 3d 60 8c b4 be 8b cb 11 be ad b2 8d be
       0.05136613 -0.35263348 -0.14237802 -0.2767538
0000e0 18 8c 43 3e b9 be 77 be 4d e6 01 3e c2 24 fd 3d
       0.1909641 -0.24193849 0.12685509 0.123605266
0000f0 66 ee 8e 3c c1 16 67 bd 70 b4 be bd f0 d1 bb 3d
       0.017447662 -0.056418184 -0.093117595 0.09170902
000100 ad 26 6b 3e 63 7c 07 3e 03 74 8b 3e 5d 43 67 be
       0.22963972 0.13231044 0.27236947 -0.22584291
000110 a3 16 35 be f7 5e 28 bd 5b cc 3e be 7e 34 c1 3d
       -0.17684416 -0.04110619 -0.18632643 0.0943384
000120 43 28 8e be 38 95 83 be 59 83 11 3e bf 9e 73 be
       -0.27765092 -0.25699782 0.14210261 -0.23791026
000130 c3 1a 0c 3e c7 53 c7 3d cf 31 87 be 72 b0 95 bd
       0.13682084 0.09732776 -0.26405188 -0.07309045
000140 31 79 8f bd 6b 23 e3 3d e8 32 23 3d d4 d6 7b 3e
       -0.07005537 0.1109074 0.03984347 0.24593669
000150 ac 28 87 be 95 92 13 3e 6f db 08 3e 56 d7 45 3e
       -0.26398218 0.14411385 0.13364957 0.19320425
000160 47 c2 30 3e 01 46 83 3e af 15 8c be 05 bd 30 be
       0.17261611 0.25639346 -0.27360293 -0.17259605
000170 31 8b 63 3e c8 c2 82 3e c5 19 a0 be 79 26 2c 3d
       0.22221066 0.2553923 -0.3126966 0.042028878
000180 64 9c 23 bc da 5b 94 be 9f df c4 bd c3 d7 b4 be
       -0.009986017 -0.28976327 -0.09612965 -0.35320863
000190 82 39 50 be b3 b5 0e 3e 62 08 6a 3e 25 be 1f be
       -0.20334437 0.139365 0.2285476 -0.15599878
0001a0 f3 e4 99 be 07 5d b6 3d 02 ae 13 be 24 ea cd bd
       -0.30057487 0.08904462 -0.14421847 -0.100544244
0001b0 2d 38 73 be 9c c0 15 3d 84 23 3d 3d ee e2 58 be
       -0.23751898 0.03656064 0.04617645 -0.21180317
0001c0 5d 3e 8d 3e c4 5c 90 3e 02 79 76 be 34 5a 9e bd
       0.27586642 0.28195775 -0.24069598 -0.07732049
0001d0 61 93 df 3d 79 e5 0d be 86 36 b2 3d 85 9f 90 3e
       0.10916782 -0.13857068 0.08701806 0.28246704
0001e0 a1 a8 86 be 0c ca 8f be b3 a2 11 be e3 4a a5 be
       -0.2630053 -0.28083837 -0.14222221 -0.32283697
0001f0 b7 39 26 3e c6 0d 41 be 5f d5 69 3e 87 00 8a 3e
       0.16232954 -0.1885291 0.22835301 0.26953527
000200 d8 ad 9f be 66 bf f3 bd a9 1f 43 be 98 70 65 be
       -0.3118732 -0.11901741 -0.19055046 -0.22406232
000210 f4 74 46 3e 54 2c ea 3d 81 83 84 3e aa 36 e8 3d
       0.19380552 0.11434236 0.2588158 0.11338551
000220 6a 97 63 3e a4 fd 7b be b9 64 92 be ab 75 65 be
       0.22225729 -0.24608475 -0.2859247 -0.22408168
000230 40 0f 1d 3d 9d c5 9e 38 1b 14 d0 3d a7 ca 73 be
       0.03834462 7.5708354e-05 0.10160085 -0.23807774
000240 90 48 01 be 74 0a cc bd 1f 25 14 be 98 e6 44 3e
       -0.12625337 -0.09962931 -0.14467286 0.1922859
000250 c3 37 a5 bd dc 98 8a be a4 dc d4 3d e1 b3 27 3e
       -0.08067276 -0.27069747 0.10393646 0.16377212
000260 f9 14 b1 bd 2b cf 6d 3e 6e 62 d8 bd f3 36 3d 3d
       -0.08646578 0.2322356 -0.10565649 0.04619498
000270 ed f4 81 3e be d2 93 bd cd ec a0 bd fd a4 a6 3e
       0.25382176 -0.0721793 -0.07857666 0.3254775
000280 64 a7 01 be 2b db e1 3d ba f6 29 3c fe c2 17 be
       -0.1266151 0.11028131 0.010373766 -0.14820477
000290 5e ad 32 be 7e 2b 7c bd 69 af d6 bd f9 89 8a 3d
       -0.17448947 -0.061564915 -0.104826756 0.067645974
0002a0 9b 97 99 3c 58 f6 48 3d 07 64 ce bd cf 0e 7f be
       0.018749049 0.049063057 -0.100776725 -0.24907993
0002b0 6c 91 a4 bd 6f b8 55 be df 00 11 3e ed 2f 31 3e
       -0.080355495 -0.20871137 0.14160489 0.17303438
0002c0 44 8c 25 be 52 e0 74 bd a0 3f aa bd 26 a7 85 3e
       -0.16166788 -0.05978424 -0.08312917 0.26104087
0002d0 05 2f 70 be 79 bd e7 bd 2d 4f 13 3e a7 9e 61 3e
       -0.23455437 -0.11315436 0.14385672 0.22033177
0002e0 0b 51 84 3e 1e 44 20 3e b2 94 54 be ae 3d 81 3e
       0.2584308 0.15650985 -0.20759848 0.2524237
0002f0 69 53 5e 3e f6 3a 88 3e 6a 54 29 3e 92 bd 8a be
       0.21711506 0.26607484 0.16536108 -0.27097756
000300 a4 7c 4f be 8e 70 7d 3e 29 9a 96 be ab c9 42 be
       -0.2026239 0.24749967 -0.2941449 -0.19022243
000310 51 84 2a 3e d8 04 a2 be 4b da 11 be d6 29 08 be
       0.16652037 -0.3164432 -0.14243428 -0.13297209
000320 42 f3 84 3e ef 68 6a be d0 3b a1 3d 77 1c e4 bd
       0.2596684 -0.22891591 0.078727365 -0.11138242
000330 bc 41 03 be 61 8b 3a 3d 2b f6 78 be 87 c5 0c 3d
       -0.12818044 0.04554308 -0.24312656 0.034368064
000340 28 76 07 bd ae b2 23 be c0 2a 01 35 c1 92 78 3e
       -0.033071667 -0.1598613 4.8118454e-07 0.24274732
000350 41 b9 53 3e bb a8 74 bd 93 fe 84 bd 22 a8 74 3e
       0.20676138 -0.059731226 -0.06493869 0.23892263
000360 48 3b 8d be 2d 25 1d 3e 76 1c 9f bd bc fc 81 3e
       -0.2758429 0.15346213 -0.077691 0.25388134
000370 6c b2 72 3e aa 00 01 be 6a cd e9 ba 3c 39 81 be
       0.23700875 -0.1259791 -0.0017837707 -0.2523898
000380 78 a7 12 3e 16 9d 01 3e 3e a5 bc 3d b8 e2 1c be
       0.14321697 0.1265758 0.09211205 -0.15320861
000390 ec a4 ac 3e cc 24 86 bd e2 6e a0 3e 82 e0 39 bd
       0.33719575 -0.06549987 0.31334597 -0.045380123
0003a0 6f 02 8a be 24 ef 23 bd cd c0 86 bd fc c6 21 be
       -0.26954982 -0.040022984 -0.065797426 -0.15798563
0003b0 f4 33 76 3e d5 e8 90 bd fe 35 48 3d 52 7a 9d 3e
       0.24043256 -0.07075659 0.048879616 0.30757385
0003c0 a0 2d cb 3d 80 9d 41 3e 4e 05 85 bc a4 b2 94 3c
       0.09920812 0.18907738 -0.016237881 0.018151589
0003d0 bc e9 f1 3d 3e 22 9e 3c e6 f9 df 3d d0 0f 1e 3e
       0.118121594 0.019303437 0.10936336 0.1543572
0003e0 a1 43 70 3e 1d ec a4 3d 5e 72 8b 3e c6 9f 7c be
       0.23463298 0.080528475 0.27235693 -0.24670324
0003f0 f3 26 82 be 92 ef 87 3e b7 1d 58 bd 12 d1 d3 3c
       -0.2542034 0.26549965 -0.052762713 0.025856528

sequential/dense/BiasAdd/ReadVariableOp:0 f4 [15]
000000 82 f3 fe 3c 25 17 8b 3c 0c 1c db 3c d1 1c ae 3c
       0.031121973 0.01697881 0.026746772 0.021253975
000010 b4 9a 9c 3c 4a fd e3 3c f3 44 5d bb 75 87 c4 3c
       0.019116737 0.027830739 -0.003376302 0.023990372
000020 27 3d bf 3c ec fc 2b 3c b6 8f 93 bc 13 89 80 3c
       0.02334459 0.010497313 -0.018012863 0.015690362
000030 19 d0 04 3c f7 9e 9d 3b e1 57 1f 3c
       0.008106255 0.00481021 0.009725542

W0__62 f4 [1, 200, 50]
000000 53 f4 96 bd 62 44 b3 bc 12 fb 13 bd 10 5a c4 3d
       -0.0737082 -0.021883193 -0.03612811 0.095874906
000010 f1 fc 36 3e 9e 6a 0f 3e 37 0b 13 3e b1 7e c6 3c
       0.17869927 0.14005515 0.14359747 0.024230333
000020 0e 31 57 bb 01 5a d5 3d 07 cb f5 3d 23 77 32 3d
       -0.0032835635 0.104175575 0.12001615 0.04357065
000030 39 09 d7 bd 54 72 c0 bd 8b 75 bc bd 7c ba b1 3d
       -0.10499806 -0.09396806 -0.09202107 0.08678147
000040 1a f7 8b bc 6b ab 4e be 44 de 04 3e e4 f9 11 3d
       -0.0170856 -0.20182578 0.12975413 0.035638705
000050 4a d7 28 3c ff 64 f0 bd 39 8a 63 3d a4 10 0c be
       0.010305235 -0.117380135 0.05555174 -0.13678223
000060 40 24 d6 3d 76 39 94 ba c6 64 0e be aa 42 20 3e
       0.10456133 -0.0011308629 -0.1390563 0.1565043
000070 d5 bb ac 3c ce af 01 be b9 20 a7 3c a0 3c 4a 3c
       0.021085659 -0.1266472 0.020401346 0.012343556
000080 06 77 11 be f0 5f af 3c e5 13 fb bd 8a 77 4c 3d
       -0.1420556 0.021408051 -0.12259654 0.04991869
000090 58 2a 2c bb 18 fe b3 3d 09 f3 98 3c 86 85 d6 3c
       -0.0026270356 0.08788699 0.018670576 0.026186716
0000a0 7b e4 e2 3d bf a0 f8 bd 85 c3 34 3e 92 20 87 bc
       0.110787354 -0.12140035 0.1765271 -0.016495023
0000b0 81 21 57 be 33 0b 25 bd fd e0 0e 3e 3d b8 94 bd
       -0.21008874 -0.040293884 0.13953014 -0.07261703
0000c0 49 94 c3 3d 99 a6 4c be 69 1f 86 bd d8 e9 a1 3c
       0.095497675 -0.19985427 -0.0654896 0.019764826
0000d0 77 39 f4 bd 9f ac bc 3d 5b 56 e2 3d 15 43 47 bd
       -0.11925023 0.09212612 0.11051627 -0.04864796
0000e0 2d 81 33 3d e7 b5 97 3d 75 33 b9 bc 01 26 cd bd
       0.043824363 0.07407742 -0.022607544 -0.10017014
0000f0 55 b7 22 be 2a 4d 1c be ee 9a 5e 3d 42 6e 37 bb
       -0.15890248 -0.15263811 0.05434697 -0.0027989303
000100 e9 df 90 3d bc ad 4f 3d bd d2 91 3d 8a 01 ac bd
       0.070739575 0.050702795 0.07120273 -0.08398731
000110 64 1d a9 bd c8 aa a0 bd 5c b6 1c 3a 9d 1e e7 bd
       -0.08257559 -0.07845074 0.00059781014 -0.11285136
000120 fc be 7c bd f1 69 1c 3e fd e0 b3 bd 2c b5 84 3c
       -0.061705574 0.15274788 -0.087831475 0.01619967
000130 36 e5 c0 3c 9d c6 b6 3d 97 e7 92 bd 8c 0b 9b 3c
       0.023546796 0.08924601 -0.071730785 0.018926404
000140 84 93 13 3d f0 4e 11 3e bc c0 c1 3d 5d ec 51 3d
       0.036029354 0.14190269 0.09460589 0.051250804
000150 99 51 3d be 2d ad 38 3e 3e 68 16 bd 64 89 00 be
       -0.18488158 0.18034811 -0.036720507 -0.1255241
000160 f4 b4 f2 bd 8a 59 e2 bd 9f a5 81 bb fd a0 da 3d
       -0.1185092 -0.110522345 -0.003956511 0.10675237
000170 49 f3 b8 3d da 93 d6 bd dd 08 8f bd 21 57 24 be
       0.09030778 -0.10477419 -0.069841124 -0.16048862
000180 8a 96 fc 3c 69 97 e7 3d dd 4a ae 3d d9 63 5b bd
       0.030833501 0.11308176 0.08510373 -0.05356202
000190 80 0f c4 3d e1 50 09 3d a5 1c 31 3c e1 98 fe bd
       0.09573269 0.033524398 0.010810052 -0.12431503
0001a0 21 06 93 bd b9 8f 18 bb 9a 16 17 be db 61 85 3d
       -0.07178903 -0.0023279025 -0.14754716 0.06512805
0001b0 a5 9b 96 bd 98 26 16 be 4a f0 0b bd 40 44 f5 39
       -0.073539056 -0.1466316 -0.034164704 0.00046780892
0001c0 df e0 ac bd 97 40 a9 3d 75 21 a0 bd da f1 a2 bd
       -0.08441328 0.08264273 -0.078188814 -0.07956286
0001d0 aa d0 cf bc a5 49 cc 3c 25 d4 d1 3d e7 f0 12 be
       -0.025368053 0.02493746 0.102455415 -0.1434971
0001e0 29 56 b4 bd db c8 8b 3c 49 55 2f be f7 d3 cf bd
       -0.08805496 0.017063549 -0.17122377 -0.10147851
0001f0 3a f1 00 3e 69 cc d8 bd 4a 39 09 3c 74 0e e9 3d
       0.1259202 -0.10585863 0.008375475 0.1137971
000200 8c bc 06 be cd ff 0e be 50 c4 cd bd 20 99 a8 3d
       -0.13157862 -0.13964768 -0.10047209 0.08232331
000210 ce 8d d3 3d ea be 19 be d7 6f e8 3d c0 0b dc bd
       0.103297815 -0.15014234 0.11349457 -0.10744429
000220 7d 30 8e bc 4e c4 66 bb 0f 22 81 bd 63 b4 a9 bd
       -0.017357105 -0.0035212222 -0.06305324 -0.08286359
000230 fe 75 26 3e 8b 9b b0 bd cd 5f 89 bd 46 96 a6 bc
       0.16255948 -0.086234175 -0.06707726 -0.020335328
000240 7a 6f 56 bd 89 62 1d 3d 9f d3 d9 bb 71 99 bd bc
       -0.052352406 0.03842405 -0.0066475417 -0.023144456
000250 93 f6 01 be 7f 28 6c be 44 33 a7 bd a3 d6 75 bc
       -0.12691717 -0.23062323 -0.08164075 -0.015004787
000260 84 72 82 3d ac 8e b7 bc 5f 8b 2c bc 2c e2 3f 3d
       0.06369498 -0.022406898 -0.0105312755 0.046846554
000270 22 73 28 3e 97 79 2f be d3 a9 23 bd 34 04 5e 3d
       0.1645017 -0.17136227 -0.03995688 0.054203227
000280 b1 96 ed 3d 05 64 f6 bc b0 fd 07 b8 41 67 59 be
       0.11601008 -0.03007699 -3.2422773e-05 -0.21230794
000290 da 88 fe 3d 8f 63 96 3d eb 14 42 be 89 48 25 be
       0.12428446 0.07343208 -0.18953292 -0.16140951
0002a0 8a 70 4f 3e 2b 6d 84 bd 2c 2c 36 be 1c 82 81 3b
       0.20257774 -0.06466135 -0.17790288 0.003952278
0002b0 89 f7 c4 bc 33 76 a1 3d b8 18 0c bd 28 dd 4a bb
       -0.024043815 0.07883873 -0.03420326 -0.0030954573
0002c0 08 4c d8 bd 30 6d 05 3e 7b 58 65 bc fa d3 9e 3d
       -0.10561377 0.13029933 -0.013998146 0.07755275
0002d0 0e f3 06 3a 7f ac 90 bd 47 0b d0 3c 42 fc 12 bd
       0.00051479123 -0.07064151 0.025396002 -0.035885103
0002e0 28 f0 02 3e 59 ae 12 3b e2 45 c1 bd 12 66 95 3c
       0.12786925 0.0022381751 -0.09437157 0.018237147
0002f0 85 ff 9f 3d 78 24 eb 3d 6b 8c 19 be 53 30 0f 3e
       0.07812408 0.11481565 -0.14994971 0.13983278
000300 58 26 5b 3d c7 11 02 3d 2c 23 de ba 69 a3 d7 3d
       0.053503364 0.031755235 -0.0016947738 0.10529215
000310 85 52 27 bd f9 3f 2e bd 83 98 81 bd 5c be 5e bd
       -0.04085018 -0.042541478 -0.063279174 -0.05438076
000320 69 c1 09 3e f1 70 8a bd 2a d8 d5 3d 2c 57 70 3d
       0.13452686 -0.06759823 0.10441621 0.058676884
000330 c2 8d 13 3e 2d 39 4b 3d 80 92 ef bd c3 10 5e 3c
       0.14409545 0.049615074 -0.116978645 0.013553801
000340 58 b5 21 3d 7c fe a8 b9 2d 11 77 bd 13 a4 9b bd
       0.039479584 -0.00032233063 -0.060319114 -0.07599654
000350 1d 4c b3 bd de 82 fe 3d 9a cb e2 bc 52 d4 18 3e
       -0.08754752 0.12427305 -0.027684975 0.14924744
000360 7d c2 6f 3c 68 6e 3d be 6f 53 a3 3d 4f 78 0f be
       0.014633772 -0.18499148 0.07974898 -0.14010738
000370 fb e1 28 bd 94 16 ea 3d ca eb c8 bd 75 ff 7d bd
       -0.041231137 0.11430088 -0.09810598 -0.0620112
000380 6d aa 18 3e 83 87 24 be ca 12 04 3e 4e 78 23 be
       0.14908762 -0.16067319 0.12897792 -0.15963861
000390 e0 97 c0 bd df 2c 8d 3e 34 cd 08 3e 56 39 9e bc
       -0.09403968 0.27573296 0.13359529 -0.01931445
0003a0 96 14 22 be 54 88 15 3e 10 78 24 be 7e f4 66 bd
       -0.15828165 0.14602786 -0.16061425 -0.05638551
0003b0 3b 77 34 3c 2f 1f 1e 3e 79 ef 66 3d 8f b4 d2 bd
       0.011014755 0.15441583 0.056380723 -0.10288345
0003c0 ae 3e 1d 3e 1a fe 27 3e 52 ea 7f bd 00 e2 b2 3d
       0.15355942 0.16405526 -0.062479325 0.08734512
0003d0 c8 d6 8c bd 87 8d 88 3d 32 35 ad 3d 56 f2 c1 bd
       -0.06876904 0.06667619 0.08457412 -0.0947005
0003e0 2f bb 85 3d 75 28 4e be a0 83 7d 3d 16 f0 2d be
       0.06529843 -0.2013262 0.061893106 -0.16986117
0003f0 81 a6 d6 bd 55 eb b6 3d be 57 cc bd f5 79 aa bd
       -0.10480977 0.08931605 -0.09977673 -0.08324043

W0__41 f4 [1, 200, 15]
000000 44 31 e8 3c 1c 09 55 3c 49 e3 26 bd 95 dd 9a 3d
       0.028343804 0.01300266 -0.0407441 0.07561795
000010 93 60 02 3c b8 84 1b 3e 98 6a f3 3c b3 29 73 3d
       0.007957595 0.15187347 0.029713914 0.05936594
000020 8b 38 0b be ba dc eb 3d 5d 2c 82 3d 27 4b ed bc
       -0.13595788 0.115167096 0.06356118 -0.0289665
000030 b9 63 d3 bc f8 2d 7d be 33 f4 2e be 58 1b cb 3d
       -0.025804387 -0.24724567 -0.17085342 0.09917325
000040 ff 08 8e bd 99 92 56 3d 97 78 8e 3d bb 47 7c bd
       -0.069353096 0.0523859 0.069565944 -0.061591845
000050 99 e3 38 bd 58 35 20 3d e2 9a 06 3e 92 f9 30 3e
       -0.04513893 0.039113373 0.1314502 0.17282704
000060 f5 2f a2 3d 8a f0 55 3e cb 3f 8d bd 4a 1b 07 3d
       0.07919303 0.2089254 -0.06896933 0.03298501
000070 1a 5c 8e bc 12 22 db 3d 33 ec 09 3e a5 95 e9 3b
       -0.017377902 0.10699858 0.13469009 0.0071284347
000080 88 a3 03 be 4a e0 d6 3d ff 52 f0 3b 2f 67 ce 3c
       -0.12855351 0.104919985 0.0073341127 0.025195686
000090 aa 8d 84 3d 06 58 58 3d d8 9e a3 3d ab b1 12 be
       0.06472333 0.05281832 0.079892814 -0.14325587
0000a0 c9 89 63 bd 58 e9 e2 bb b8 75 ec 3d 73 71 fc 3d
       -0.055551324 -0.0069247894 0.115458906 0.12326326
0000b0 0e 12 09 be 25 64 28 3e 52 b0 bb 3c 84 96 80 3d
       -0.13385794 0.16444452 0.022911225 0.062787086
0000c0 a6 b2 22 bc dc 2a 3b 3e d9 14 d5 bd a4 bc 0d 3e
       -0.009930288 0.18278068 -0.10404367 0.13841492
0000d0 f1 c6 3b be 80 a5 e1 3d 43 91 fa bd fe 61 85 3c
       -0.18337609 0.11017895 -0.12234738 0.016282078
0000e0 8c 09 11 3e f9 8c 28 3d 2c 58 41 3d 18 90 80 3b
       0.14163798 0.041150067 0.047203228 0.0039234273
0000f0 e8 8a fd bd 2e ce 43 3e 22 d0 a0 bc b3 c5 0c 3e
       -0.1238001 0.1912162 -0.019630495 0.13747291
000100 21 0f 58 bb f6 79 cf bd 9c 46 9e 3d 76 04 13 3c
       -0.0032968002 -0.10130684 0.077283114 0.008973232
000110 8f 3e 94 3d 78 9c 84 3d d1 b1 67 3d 69 aa c6 3d
       0.072384946 0.064751565 0.056566063 0.09700472
000120 d9 74 1a 3e 2d b0 9d bb 62 29 c1 3d 3f 09 8a bd
       0.15083636 -0.0048122616 0.09431721 -0.06740045
000130 a7 60 00 bd ec 1c 5f bb f3 cc 60 bd 48 22 cf 38
       -0.031342175 -0.0034044338 -0.054882955 9.8769146e-05
000140 f5 58 a5 3d d8 a8 48 bd be 5c 65 3c f3 83 23 3e
       0.08073608 -0.048989147 0.013999162 0.15968303
000150 92 25 d9 bd d1 3a e5 bc ae db 49 bd a1 76 1a 3b
       -0.10602869 -0.027982147 -0.04928177 0.0023569243
000160 8a 30 e5 bd d0 c7 a3 bd 78 e6 17 bc 22 b9 13 bd
       -0.11190899 -0.079970956 -0.009271257 -0.03606523
000170 91 17 1b 3e d5 fe 4c 3d 85 00 78 bd 42 82 5d bd
       0.15145709 0.050047714 -0.06054737 -0.0540793
000180 62 56 a9 3d 16 22 96 bd 92 8a f3 3c 6f c8 37 3e
       0.08268429 -0.0733072 0.029729161 0.17947553
000190 5c cb 16 3e b3 ee 21 bd 76 75 c4 3d 12 8b 3f bd
       0.14726013 -0.039534282 0.095927164 -0.046763487
0001a0 6d 25 42 bd 25 29 61 3e bf 53 b3 bb 48 9e ea 3d
       -0.047398973 0.21988352 -0.00547263 0.11455971
0001b0 40 17 a3 bc 03 52 db bc b3 e8 4d 3c 1c 91 71 3d
       -0.019908547 -0.026772505 0.012567687 0.058976278
0001c0 20 c0 bd bd e2 ff a0 bd e2 11 d9 3d 6c 07 96 bd
       -0.092651606 -0.07861306 0.10599114 -0.07325634
0001d0 fd 14 3c 3e 45 59 81 3d 05 99 a4 3c dc 8c 0e be
       0.18367381 0.06315855 0.020092497 -0.13920921
0001e0 29 66 8e 3c f2 a0 b1 bd 48 38 0e bd 16 d8 d1 bd
       0.017382698 -0.08673276 -0.034721643 -0.10246293
0001f0 1b c2 46 3d 3d 8d 02 bd 14 77 b5 3d 3a 1c df bc
       0.048524957 -0.031872977 0.08860603 -0.02723514
000200 c4 74 b4 3d f2 c5 9b 3d b4 59 ce 3d 89 78 93 bd
       0.08811334 0.076061144 0.10075703 -0.07200725
000210 37 83 17 3e 88 53 13 3e 46 f9 b1 3c 7c 37 da bd
       0.14796148 0.14387333 0.021725308 -0.10655114
000220 84 6e 18 bc 85 7f 82 3d d5 a4 5e bc 31 72 2e 3c
       -0.009303693 0.06371979 -0.013589104 0.010647343
000230 92 64 f3 bd 5c 62 0f 3d 7c b9 f2 bd b3 b6 f6 3c
       -0.11884417 0.035005912 -0.118517846 0.030116415
000240 c3 83 10 be 3b 56 b3 3d 18 65 60 be 7d 00 5b be
       -0.14112763 0.087566815 -0.21913564 -0.21386905
000250 d2 2c 2b 3e 76 bf 04 be 67 e8 8b 3d f5 dd c4 3d
       0.16716316 -0.12963662 0.068314366 0.096126474
000260 3d 2b 15 3e ee eb 7a 3d 7c 88 12 3e 5b d1 36 3e
       0.14567275 0.061260156 0.14309877 0.178533
000270 06 97 20 3e 99 a6 5c bd 3e 3f 66 3c ac 24 80 bd
       0.15682611 -0.053869817 0.014053164 -0.062569946
000280 d2 ec 28 3c 5e 46 05 bc d1 6b 8e bd a3 09 81 3d
       0.010310369 -0.008134453 -0.06954158 0.06300666
000290 5f 2c 4c 3d 3c 88 e4 bc bb 73 17 3e a9 a4 09 3e
       0.049847003 -0.027896993 0.14790241 0.13441719
0002a0 01 88 ec bc aa 9d d2 3c 2a 7a 27 3e 40 5f c9 3d
       -0.028873445 0.025709946 0.16355196 0.098326206
0002b0 d8 b6 97 3d d8 ff 9d bd 9b 05 60 3e 99 ae cb 3d
       0.074079216 -0.07714814 0.21877138 0.09945411
0002c0 10 c2 73 3e 23 a8 da 3c 93 8d 1d 3e 5c 62 90 bd
       0.23804498 0.026691502 0.15386038 -0.070500106
0002d0 a2 21 0f be 99 db 79 3d 98 0e e5 bd 3d bf 40 bd
       -0.13977674 0.06100044 -0.11184424 -0.04705738
0002e0 e1 4f a4 bd 9e 18 26 3e 7a 12 a7 bd 29 56 74 bd
       -0.08023048 0.16220328 -0.08157821 -0.05965248
0002f0 cb c5 4a 3e 1e bd 37 3e 11 21 e9 3d b8 c6 9e 3d
       0.19802015 0.17943236 0.1138326 0.07752746
000300 22 be 91 3e 62 fd e0 3d 4a 9d 09 3e 40 b9 3e 3d
       0.28465372 0.10985829 0.13438907 0.046563387
000310 ad c1 82 bd fe 62 c7 3b 50 31 ce 3c ad 88 ad 3d
       -0.06384597 0.006084799 0.025169998 0.084733345
000320 6b 95 b5 3d c4 4e 1f be 19 52 20 3b eb b4 45 bd
       0.0886639 -0.1555739 0.0024462997 -0.04826824
000330 fb 2f 0f bd ca 27 82 3d f1 bf da 3d 04 14 29 3e
       -0.034957867 0.063552454 0.10681141 0.16511542
000340 f8 82 19 3e fa 12 1b 3e d4 5e bb 3c 83 b7 e0 bc
       0.14991367 0.15143958 0.022872366 -0.027431255
000350 71 db de 3d 20 71 51 3e 34 9a a7 3d 47 ce 9d bb
       0.10881699 0.2045331 0.08183709 -0.00481585
000360 5c 8b 34 3d 00 89 0d 3e 69 86 1f 3d a0 4a d2 bd
       0.044078216 0.13821793 0.038946543 -0.1026814
000370 54 5b e3 bc ac 39 3d bd 84 31 3a 3e 17 10 3a be
       -0.02775351 -0.04619758 0.18182951 -0.181702
000380 93 7a b3 bc 16 eb da 3d da 4e 64 3b e2 3b 78 bd
       -0.021909034 0.1068937 0.0034837038 -0.060603984
000390 72 65 ff 3c 9b 4d 23 3e 4b a9 02 3c 6d 37 bf bd
       0.031176303 0.15947573 0.007974933 -0.093367435
0003a0 d5 d3 77 3d ad ba 5b bd 7c 57 08 3e b2 56 27 3e
       0.060504753 -0.053644825 0.13314623 0.16341665
0003b0 01 81 33 3c 22 a1 6b 3c c4 6d 79 3e 4a d4 01 3e
       0.01095605 0.014381679 0.24358279 0.12678638
0003c0 29 93 e2 3c f3 f0 63 3e 9a da 81 3e 3c 26 9a 3c
       0.027658062 0.22259884 0.25362092 0.01881706
0003d0 e3 52 fb 3d 64 76 0b 3e d0 9e 54 bc 91 53 09 3e
       0.12271669 0.13619381 -0.012977317 0.13410784
0003e0 23 ed 00 3d 07 cc 21 3d 69 78 27 3e 43 95 9a 3e
       0.03147615 0.039501216 0.16354527 0.30192003
0003f0 4a 34 3f 3c 42 e6 4b 3e 9d cd 17 3e 83 1c be bd
       0.0116701815 0.19912055 0.14824529 -0.09282782

R0__63 f4 [1, 200, 50]
000000 fc 2f 14 bd b3 bd 9f bc 12 67 b3 3d cb 59 22 be
       -0.036178574 -0.019499635 0.087598935 -0.15854566
000010 2d d8 2f bc 75 3b c7 3d a2 55 a1 bd 9c 2b 79 3d
       -0.010732693 0.097281374 -0.07877661 0.060832605
000020 36 22 e6 3d 97 1e fa 3c 05 c0 37 3d 54 d6 10 bc
       0.11236994 0.030532164 0.04486086 -0.008840162
000030 3b 09 6b bd 80 41 96 3d 24 49 44 3c dd 57 17 3d
       -0.05738185 0.07336712 0.011980329 0.036949027
000040 d5 94 b3 3b 88 33 7c bd 38 14 a2 bd a9 16 db 3c
       0.0054803886 -0.06157258 -0.07914013 0.026744204
000050 27 f9 34 3e 15 82 67 bd 19 26 5a 3c 6d 5f cd bc
       0.17673169 -0.05652054 0.013314747 -0.025069917
000060 01 6a 4c bc 25 9e 82 3d 05 49 62 bd 16 b7 c7 3c
       -0.012476445 0.0637782 -0.055245418 0.024379294
000070 3b 94 cd 3c cd 48 d6 3d da 49 0e bd 36 de bc bd
       0.025095096 0.104631044 -0.0347384 -0.09222071
000080 37 9a b6 3c b3 e1 f5 3d 28 de 67 bd bc 7f 6d bc
       0.022290332 0.12005939 -0.05660835 -0.014495786
000090 86 d8 36 3c 16 f8 53 3c 9f aa 1a 3c 5e f5 88 3d
       0.011160022 0.012937566 0.009440093 0.06687425
0000a0 74 28 03 3d 0e 7c fa 3c 5f b7 66 3d 1e f5 b5 bd
       0.032021 0.030576732 0.05632722 -0.08884643
0000b0 28 e6 2c 3d 94 b9 4c b9 11 36 35 bd 8e b0 35 3e
       0.04221168 -0.0001952409 -0.044241015 0.17743132
0000c0 fb b0 35 3c f5 e1 c3 3d d8 e0 87 ba 66 0c 93 bc
       0.011089559 0.09564582 -0.0010366691 -0.017950248
0000d0 0c 3c 91 3d 33 2d 27 bd f4 bb 84 3d 08 50 70 3c
       0.07091531 -0.04081459 0.06481162 0.014667518
0000e0 39 a1 59 bc 2a a3 19 be a0 3d ba bd a6 e0 73 bd
       -0.013283067 -0.15003648 -0.09093785 -0.059540413
0000f0 ca f5 b3 3c 5e b1 99 bc f2 74 6c 3e 15 45 02 be
       0.021967787 -0.018761333 0.23091486 -0.12721665
000100 b7 1f 72 bd 26 2f 5c 3d 72 20 72 bc eb 8b 47 3d
       -0.059112277 0.0537559 -0.014778243 0.04871742
000110 ec 9c d1 bc de d2 1d be c5 61 bc 3c 31 8b fc bc
       -0.025587521 -0.1541247 0.022995839 -0.03082809
000120 bd 79 3a 3d 0c b0 07 3d ad 82 b5 3d 74 10 58 bd
       0.045526255 0.033126876 0.08862815 -0.052750066
000130 84 a8 0d 3d 93 ca c7 bb eb 05 ce bc 56 53 40 bd
       0.034584537 -0.006097147 -0.025149306 -0.046954475
000140 f0 24 fa 3d 5c 17 01 3e 25 21 37 bd 95 3f e7 bd
       0.122140765 0.12606567 -0.044709343 -0.11291424
000150 a5 6f fa bc 2f 26 3f bd 03 e4 0c bd 5b 78 01 be
       -0.030570814 -0.046667274 -0.034397136 -0.12643568
000160 1d 72 c7 bd 88 e3 0f 3d b8 57 f3 bd 49 9e 7e bd
       -0.09738562 0.0351291 -0.118819654 -0.06216267
000170 5f 89 01 3e 1d 6b ee 3c e3 52 d8 3c 6b d7 10 3c
       0.12650059 0.02910381 0.026406711 0.008840422
000180 12 42 29 3d 2d ab d7 bc 5c 0e 6a bc af 0a 3d 3e
       0.041322775 -0.02632674 -0.01428565 0.18461107
000190 ba 5d 11 3d 73 62 a7 3c 2d 6b 92 3d 52 db 88 3d
       0.035489775 0.020432686 0.071493484 0.06682457
0001a0 36 5d 8d bd 4a fb 80 3d b1 1c 11 3c 3f a6 4d 3c
       -0.06902544 0.062979296 0.008856938 0.012551843
0001b0 60 6f 16 3c 52 d6 03 bd 36 97 1e be f8 c2 25 3d
       0.009181827 -0.032186814 -0.1548737 0.04046914
0001c0 cf 84 5a bd 88 f5 c2 3d 0c 94 d9 bd 46 2a 80 bd
       -0.053349312 0.095194876 -0.10623941 -0.06258063
0001d0 87 f3 78 bc 2f 1d b4 3c 69 cf e5 bc f7 e7 6d 3c
       -0.01519478 0.021986572 -0.028053002 0.014520637
0001e0 14 22 0c bc b0 27 3f bd 0a 0b c0 bd c2 bd 4f bd
       -0.008553047 -0.04666871 -0.093771055 -0.050718077
0001f0 d7 95 cc 3c 14 f5 f3 bd 0c 81 16 bd d6 9b c1 3d
       0.024973793 -0.11911979 -0.036744162 0.094535515
000200 9e 07 5a 3d 83 de ca 3b 54 d9 07 3e 41 38 f9 bd
       0.05322992 0.0061910762 0.13266498 -0.12168933
000210 9a a1 3a be c1 a3 87 3d ed 5f db 3d 80 fc 9d 3c
       -0.18225709 0.066230305 0.10711656 0.01928544
000220 2e 2f c1 bc 85 b3 b0 3d 0c c6 b3 3d 2a 82 5e bd
       -0.023582067 0.08627991 0.08778009 -0.054323353
000230 a2 19 30 bb e7 67 0c be 6b 9b 81 3c f4 10 39 3e
       -0.0026870747 -0.1371151 0.01582118 0.18072873
000240 0d d3 e3 3d cc e8 a2 bd f1 4f 45 bd ab 58 ad 3c
       0.11124239 -0.07954559 -0.04817194 0.021160444
000250 e1 9b 81 bd 3b bc 87 3d a9 a0 7c bd 0b 97 03 3d
       -0.0632856 0.06627699 -0.061676655 0.032126468
000260 57 01 9f bd 2e bd ee 3d 61 26 ef 3c 33 9d df 3c
       -0.077639274 0.11657177 0.029193105 0.027296638
000270 cf 9e 69 3c ab 74 06 3d 00 b9 18 bd e9 c8 c0 bb
       0.014259054 0.032826107 -0.037285805 -0.0058833254
000280 89 ad 1e 3d 12 37 5f bc 1f bf 04 3d 5f 30 80 3d
       0.038739715 -0.01362397 0.03240883 0.06259226
000290 a2 2e 57 3d 4f 71 9d 3d a5 fd bb 3d 4b dd 9e bc
       0.052534707 0.076876275 0.09179238 -0.01939263
0002a0 be 10 67 bd d6 a6 99 3d 0e 52 05 be 18 d2 f2 bd
       -0.05641245 0.075025246 -0.13019583 -0.118564785
0002b0 91 ad b7 3d 66 97 16 3d 80 79 22 3d bf 7d 9b 3d
       0.08968652 0.03676548 0.039666653 0.075923435
0002c0 30 dd 03 be d4 c3 52 bb f8 cf 13 3c 09 c4 51 bd
       -0.12877345 -0.003216018 0.009021752 -0.051212344
0002d0 66 44 a2 bd f1 65 15 3c 6c 21 61 bc 0c c9 ff bc
       -0.07923202 0.009118543 -0.013740879 -0.031223796
0002e0 c7 dc 2c be 7f 40 02 bd b5 fd d4 bc 8f 4c 0c 3d
       -0.16881095 -0.03179979 -0.025999883 0.0342527
0002f0 a9 5a c4 3d bf 95 a7 bd 8f 41 b0 3d 71 0d 0e 3e
       0.095876046 -0.08182859 0.08606254 0.13872315
000300 58 d6 6a bc d2 62 97 bc b1 60 df 3d 2d 01 af 3c
       -0.01433333 -0.018479738 0.10907114 0.021362865
000310 b5 3f 16 3e d6 cd e7 3c 6a ea 1f bd 26 b8 69 bd
       0.1467274 0.028296392 -0.039041914 -0.057060383
000320 8e e9 17 bd c1 8d 57 3d 62 4c 98 bd 8f d9 9c bd
       -0.03708797 0.05262542 -0.07436444 -0.076586835
000330 7a 1f a0 bc e1 1f 45 bd 73 c1 70 3e 82 3b ae bd
       -0.01954626 -0.048126105 0.23511295 -0.08507444
000340 32 4a 3f 3c 74 ff 0d 3e 45 11 f6 bd 42 c8 2e 3d
       0.011675404 0.13866979 -0.12015013 0.04267145
000350 66 ac 99 3d 75 ca cd 3c b0 fa 9e bd 54 dd 99 3d
       0.075035855 0.025120953 -0.077626586 0.07512918
000360 6b d2 b6 3d b7 12 ab bd a3 ac 9e 3d 1c 23 15 3b
       0.08926853 -0.08353179 0.077477716 0.0022756523
000370 a0 a2 58 3d 9b e7 79 bd 13 b0 e5 3c 52 49 49 3c
       0.052889466 -0.06101189 0.02803806 0.012285547
000380 54 ed 30 3d d9 7b e1 3d 6a 7a f9 bb d3 08 aa 3c
       0.043195084 0.1100995 -0.00761347 0.02075616
000390 3a 7f 2b bc 51 6b 88 bd 31 2d 24 3e d8 c0 e4 bd
       -0.010467345 -0.06661094 0.16032864 -0.111695945
0003a0 84 62 a3 3d 9c 40 cb 3d e3 64 b0 3d 20 c2 c9 3d
       0.07977775 0.09924433 0.086129926 0.098514795
0003b0 29 f2 c1 bd a6 58 3d 3d 74 53 04 be 83 3e e9 bb
       -0.094700165 0.04622712 -0.1292246 -0.0071180477
0003c0 e8 d9 d9 3b 96 12 9b 3d dd 1f 13 3d 9a bd 42 bd
       0.006648291 0.07571904 0.03591906 -0.0475441
0003d0 b2 e5 35 bd 5f 9e a8 bd 81 7e 57 bc 68 3b ca 3c
       -0.044408508 -0.08233332 -0.0131527195 0.02468653
0003e0 58 4c 42 3d dd 7c 9c bd 11 ca 25 bc b0 0e b2 3d
       0.04743609 -0.07641003 -0.010118977 0.08694208
0003f0 69 03 47 bd 86 63 8b 3d d5 d3 2c bd 66 c4 b0 3c
       -0.048587237 0.06806092 -0.042194206 0.021578025

R0__42 f4 [1, 200, 50]
000000 a0 90 9f bd 3a 3e 75 3d 58 0d 5e 3d 78 33 35 be
       -0.07791257 0.059873797 0.054211944 -0.17695415
000010 4f 1f 0e 3d 06 41 8e bc 4c 26 b9 3d 1e b5 05 3c
       0.034697827 -0.01736499 0.09040508 0.0081608575
000020 80 d3 06 bd 07 79 24 bd 67 a0 9e bc 96 58 d3 3d
       -0.032916546 -0.040154483 -0.019363595 0.10319631
000030 fe 69 67 bc b4 fc d8 3d 2d e5 5c 3d ae e0 f2 bb
       -0.014124392 0.10595074 0.053929497 -0.007412038
000040 9b 98 ab 3d f3 73 c7 3d 3b 59 ea 3c 2e 84 1f bc
       0.083787166 0.097389124 0.028607002 -0.009736104
000050 04 fc 21 3c 3d 55 c4 3d 8d 37 ee 3d 4a a1 9b 3d
       0.009886745 0.095865704 0.11631689 0.07599123
000060 3f bf 81 bc 66 91 d7 bd 3c 17 d0 3d 31 61 34 bd
       -0.015838264 -0.105257794 0.101606816 -0.044038
000070 14 e5 9d 3d 54 73 d0 3d 1c 29 0a bd 30 61 5b be
       0.07709709 0.10178247 -0.03373061 -0.21423793
000080 22 9a f7 bc ab 8e 2a 3d dd 09 23 3a 4c 27 f2 bc
       -0.030224863 0.041639965 0.0006219426 -0.029559754
000090 fe f0 8c 3d 87 31 0d 3e f1 82 14 3c 21 28 b4 bd
       0.06881903 0.13788424 0.009064422 -0.087967165
0000a0 a9 eb 00 be b4 cd 60 3d ee 0d b3 bb 2e eb bb 3d
       -0.12589897 0.054883674 -0.005464307 0.09175716
0000b0 67 20 3a be bd 41 44 bd f7 df 96 3d 75 e1 06 3d
       -0.18176423 -0.047914255 0.07366937 0.032929856
0000c0 ca 32 83 bd 65 9d ce 3b 4c 92 c8 3d 36 30 70 3d
       -0.064061716 0.006305384 0.09793529 0.058639728
0000d0 6f ef 12 bd 35 15 b0 bc 31 7d 36 3e 47 f2 b4 bc
       -0.035872873 -0.021494487 0.17821194 -0.022088183
0000e0 10 09 ff 3d cf 3a bd 3c 09 72 96 bc 24 b8 9e bc
       0.124529004 0.023099331 -0.018364923 -0.019374914
0000f0 6c 5b b2 bb ab 7c 12 bd 99 34 83 3d 9b 9a 13 bd
       -0.0054430272 -0.035763424 0.064065166 -0.036036115
000100 56 c5 42 3c 4e 89 04 bc e3 bf df bd 45 9d 32 3c
       0.011887869 -0.008089377 -0.10925271 0.010901754
000110 f1 bc d4 bd 75 89 0c 3e 48 92 87 3d 71 20 1c 3d
       -0.103876 0.1372431 0.06619698 0.038116876
000120 3d 41 95 3d ef be d3 bd 16 70 5a bd 06 78 1f bd
       0.07287834 -0.10339152 -0.05332955 -0.038932823
000130 54 91 bb bc 57 df 9c 3d cc b9 1d be ca 89 e1 3c
       -0.022896446 0.07659786 -0.15402907 0.027531523
000140 ef 06 d0 3d fe 61 87 3d 8b 2a 1b 3d 4e 79 ca 3d
       0.101575725 0.066104874 0.03788237 0.09886418
000150 a6 56 fe bc 6a 04 5e 3d 93 04 83 bd 26 dd 3a 3b
       -0.031047177 0.05420343 -0.06397357 0.0028513162
000160 d6 84 06 bc de 4c 21 3c 86 3a c6 bc b7 fb 96 bb
       -0.0082103815 0.009844987 -0.024197828 -0.0046076435
000170 74 cc 66 bc 38 8b aa 3c f7 c4 f8 bd 40 80 27 3d
       -0.014086831 0.020818338 -0.12146943 0.040893793
000180 1c 1a bb bd c0 ac c7 3c 84 55 ba bd 1d 1f 23 3b
       -0.09135839 0.024374366 -0.09098342 0.002489037
000190 f1 df 02 bc 87 08 4a bc 2a cc 5e 3b 00 b5 8e 3b
       -0.007987962 -0.012331135 0.0033996203 0.004355073
0001a0 a3 1d 65 39 98 cf bd bc 10 4e 52 bc 6c 94 99 3c
       0.00021850182 -0.023170277 -0.012835994 0.01874753
0001b0 d2 91 e3 3d d6 70 4e 3d 08 a8 cf 3d f9 85 fa 3d
       0.111117974 0.050400577 0.10139471 0.122325845
0001c0 2b 8e a8 3d b6 b3 8a 3d 47 c7 48 3d 43 30 16 3e
       0.082302414 0.067725584 0.04901817 0.14666848
0001d0 51 bf c8 bc 89 6d a7 3b dd fc 36 bd a7 1b a7 3c
       -0.02450529 0.005109493 -0.044674743 0.020398928
0001e0 7d 66 89 bd be ac d2 3d 78 66 ed bc 4c e2 4b bc
       -0.06709001 0.10286854 -0.028979525 -0.01244409
0001f0 47 26 03 3e d1 fe f5 3b 01 d8 ae bb cf de ee bd
       0.1280757 0.007507183 -0.0053358083 -0.11663591
000200 cc 74 7e bb f7 7b 10 3c cf 2b b1 ba d5 06 4f bd
       -0.003882694 0.008818618 -0.0013517084 -0.050543625
000210 e8 e4 0d 3e 21 7a 52 bd 88 61 af bd 64 43 61 bd
       0.13856852 -0.051386002 -0.085635245 -0.05499591
000220 b5 8c c6 bd 68 94 ae 3d 67 7e cb 3d c1 31 91 bd
       -0.096948065 0.085244 0.09936219 -0.07089568
000230 b9 c8 1a bd a9 c7 ec 3b 75 52 85 3d 8e c2 0b 3d
       -0.03778908 0.00722595 0.06509868 0.03412109
000240 45 19 37 3d d1 1a 80 bd 79 64 d0 bc 9e ae 2e bd
       0.044701833 -0.06255115 -0.025438534 -0.042646997
000250 60 a3 23 3d 3c 07 22 be ee 55 45 bd d5 2b 6b bd
       0.03995073 -0.15823072 -0.048177652 -0.05741485
000260 3e 43 00 3c bd bf 70 3d ec 68 b6 bc d2 de cc bd
       0.007828532 0.058776606 -0.022266828 -0.10003437
000270 16 87 0c bc 81 fa 91 3d 72 ab e8 bc 05 58 31 3d
       -0.008577129 0.07127858 -0.028402064 0.043296833
000280 cd 87 87 3d 61 55 38 bd f3 5b 22 3d 76 e6 2a bd
       0.06617699 -0.0450033 0.03963847 -0.04172369
000290 c3 44 92 3c 3e 8c c8 bd 1e 6a 8f bd b7 35 56 3d
       0.017855054 -0.09792374 -0.07002662 0.05229732
0002a0 bd 40 9e 3c fd ee b4 3d f7 ff a7 3b 54 66 94 3c
       0.019317979 0.08834646 0.005126949 0.0181152
0002b0 70 b4 d1 3d 9e 60 24 bd 08 be 02 3d fb 10 dc 3c
       0.10239494 -0.040131204 0.03191951 0.026863566
0002c0 c7 d4 b0 3d 0b 6d 65 bd 2c 80 17 3d a1 6d 1e be
       0.08634334 -0.056012195 0.03698747 -0.15471508
0002d0 eb 86 13 3d 2e 04 ff 3d ef 5a 4a bc 7f 01 28 3d
       0.03601734 0.12451969 -0.012350782 0.04101705
0002e0 a7 11 b4 3d b0 2b 00 3d 55 7a b2 3d 4a c4 0b be
       0.087924294 0.031291664 0.08714739 -0.13649097
0002f0 43 1d 02 bc 07 d0 a3 bc 33 c5 13 bd 85 14 db bd
       -0.007941547 -0.019996656 -0.036076736 -0.10697273
000300 ab 1d 4a bd c4 f2 1f be 8d cc 99 3d c9 38 b7 bd
       -0.0493447 -0.15619951 0.07509718 -0.08946378
000310 7f 10 57 3d 3d b8 2a 3d 19 46 8b 3d 0b 68 ce 3d
       0.052505966 0.04167961 0.068004794 0.10078438
000320 b5 46 17 bb b5 a1 93 bd e6 a9 95 3d 17 a9 22 3d
       -0.0023082916 -0.072085775 0.07307796 0.039712038
000330 25 95 57 bb 0a e7 1d 3e 24 36 39 be 59 e6 49 bd
       -0.0032895294 0.15420166 -0.1808706 -0.049291942
000340 23 22 04 bc d2 eb c8 3d d9 ca b1 bd b1 01 99 bd
       -0.008064779 0.09810604 -0.08681268 -0.07471026
000350 bc 87 0e 3d 25 3f 00 be e8 bd 22 bb 3a 06 24 3d
       0.034797415 -0.12524088 -0.0024832431 0.040045
000360 98 74 04 3e 76 1b d0 bc 2f 77 f5 bb 91 21 13 bd
       0.12935102 -0.02540372 -0.0074910144 -0.035920683
000370 16 04 8b bc 11 c1 07 bc 05 55 0a bd df 46 9b 3d
       -0.016969722 -0.008285777 -0.033772487 0.07581877
000380 11 76 9c 3d 2e b7 95 3c 55 23 bc bd 05 1c d1 bb
       0.07639707 0.018275823 -0.091864266 -0.006381514
000390 ce 75 97 bd 60 59 45 be e8 63 b7 3c fd f8 6e 3d
       -0.07395516 -0.19272375 0.022386506 0.058342922
0003a0 51 ed 1b 3e 1b e8 ad bd 13 18 08 bb dd 00 89 bd
       0.15227248 -0.08491536 -0.0020766302 -0.06689618
0003b0 9b 2d 8b bd 27 24 17 bc 71 63 2c bd b4 b1 b6 3d
       -0.06795808 -0.009224928 -0.042087022 0.08920613
0003c0 e3 21 ab 3d af d7 95 bd 68 06 5e 3d 52 f4 0d 3d
       0.08356073 -0.07316529 0.05420533 0.03465683
0003d0 d2 9d 91 3c ef 62 c2 bd 75 82 54 3d 96 89 7a bd
       0.01777545 -0.09491526 0.051882226 -0.06116637
0003e0 e0 49 70 3d ee e8 c4 3d 4e 68 14 bc 96 25 c8 bd
       0.058664203 0.0961474 -0.009058071 -0.09772794
0003f0 c9 e9 0b be af ef 32 3d 9c 3b 5e 3d 77 99 df bc
       -0.136634 0.04368561 0.054256067 -0.027294857

B0__64 f4 [1, 400]
000000 be 8f d7 bb 15 ef 0d 3d e9 e8 db 3c 35 1e ec 3b
       -0.0065784147 0.034651835 0.026844459 0.0072057494
000010 b4 9a 37 bc e9 ba 10 bc e0 99 bf 3b 9b c9 9b bc
       -0.011206318 -0.008833625 0.0058472008 -0.019017031
000020 69 d4 4b 3c 5d 4a 80 bb d9 ee 7b bc 5b 8b e5 bc
       0.012440779 -0.003915115 -0.01537677 -0.028020551
000030 39 37 e6 bb ff 09 b2 bb d7 ca 69 3c 41 d4 1b 3c
       -0.007025626 -0.0054333205 0.014269552 0.0095110545
000040 5d 4e d3 3b e4 6f 75 bb 77 5e be bb 3a e6 f2 3b
       0.0064485506 -0.0037450725 -0.005809601 0.007412699
000050 40 52 38 bc 7d d5 23 3b 90 2b a4 3c 32 6d 94 ba
       -0.011250079 0.0024999075 0.020040303 -0.0011324047
000060 6d 3f e7 3b 14 4a 60 3c ee a7 6a bb 1b c5 b0 bc
       0.0070571215 0.013689537 -0.003580566 -0.021578362
000070 bb 03 53 bc 5a 55 77 3c c2 55 a5 3c 9d 8e 48 3c
       -0.012879307 0.015096033 0.020182494 0.012241033
000080 fa b5 94 bc 9f 65 bb 3c 5c b1 ac ba 42 4f f4 bc
       -0.01815318 0.022875605 -0.0013175416 -0.02982295
000090 29 d2 84 3c f6 c7 9e b9 3f 15 80 bb 78 d0 76 bc
       0.016213493 -0.0003028509 -0.0039087827 -0.015064351
0000a0 91 8f 25 3d 0d 4a 05 3c 31 60 3f 3c 56 dd 73 bc
       0.04042012 0.008135331 0.011680649 -0.014884314
0000b0 f7 07 b6 3c 47 79 f5 3c 19 e8 d3 bc 28 ae 20 bd
       0.022220595 0.029965056 -0.025867509 -0.03922859
0000c0 ae 92 f4 3c cf 9a cf 3b 36 96 b4 bb 03 02 85 3c
       0.029855099 0.0063355933 -0.0055110706 0.01623631
0000d0 f7 9e 0e 3b 96 7b 9a 3b ef 95 1d bc 36 22 e2 bc
       0.002176223 0.0047144396 -0.0096182665 -0.027604204
0000e0 a3 20 0a bc 07 94 b3 bc 2e 78 57 3c e4 96 88 bc
       -0.008430633 -0.02192117 0.013151212 -0.016673513
0000f0 46 80 4a bc e3 81 11 bd ba 5e 84 bc 06 82 d2 bb
       -0.012359684 -0.03552426 -0.01615845 -0.0064241914
000100 c8 fe 80 3c 57 47 48 3b 00 84 b3 3a 54 79 7f bc
       0.01574649 0.00305601 0.0013695955 -0.015592892
000110 fc 70 46 bc d0 de 39 3c 9c ae 40 bc db 98 db bb
       -0.0121118985 0.011344627 -0.01176038 -0.0067015714
000120 a7 6f 02 3c 8d 02 70 bb 31 41 ae ba 0a df 33 3c
       0.00796119 -0.0036622614 -0.0013294575 0.01097847
000130 5a dd 03 bb c5 f0 b0 bc 63 cd 82 bc 42 a0 c1 3b
       -0.002012095 -0.021599183 -0.015967077 0.005908997
000140 08 de 60 3c 4b 39 38 3c 90 46 aa bc b4 8c 92 3c
       0.013724811 0.011244128 -0.0207856 0.017889358
000150 f4 13 86 3b 4a e2 ee bc bd d6 e4 3b 04 23 61 bb
       0.004091734 -0.029160637 0.0069836066 -0.0034353146
000160 29 5c a2 bb df 92 c5 bc e9 13 11 3d ed e2 52 3b
       -0.004954834 -0.024117885 0.03541938 0.0032178715
000170 43 a0 0b bc 35 bd ba bc 46 b4 1e 3c 55 a8 2b 3c
       -0.008522096 -0.022795299 0.009686535 0.010477145
000180 48 a8 ee bc b0 ae 22 bd 89 b0 13 3c f2 71 f5 3b
       -0.029132977 -0.039717376 0.009014257 0.00749039
000190 32 c7 7d 3f e6 e5 83 3f 1d a2 82 3f 4d 63 7d 3f
       0.9913207 1.0304534 1.0205723 0.98979646
0001a0 63 a3 7b 3f 86 13 79 3f db 7b 7b 3f 17 69 78 3f
       0.98296183 0.97295415 0.98235863 0.97035354
0001b0 0f 87 7f 3f b6 34 7c 3f 1f c7 76 3f 3e b2 79 3f
       0.9981546 0.9851793 0.96397585 0.975376
0001c0 e8 a7 7b 3f 39 50 7a 3f a8 2e 80 3f a7 0e 7e 3f
       0.9830308 0.9777866 1.0014238 0.9924111
0001d0 e7 b2 7a 3f 73 4a 7d 3f 2a 6f 7c 3f 78 c2 7e 3f
       0.97929233 0.98941725 0.9860712 0.99515486
0001e0 42 30 77 3f 0b 25 80 3f 04 42 82 3f ad 9b 7e 3f
       0.9655801 1.0011305 1.0176396 0.9945629
0001f0 7b e5 75 3f d3 a1 7f 3f c4 51 7e 3f ea 8b 76 3f
       0.96053284 0.998563 0.99343514 0.9630724
000200 ad c6 7b 3f 18 1a 7e 3f 68 fd 7e 3f 79 34 7e 3f
       0.9835003 0.99258566 0.9960542 0.99298817
000210 d0 f1 7a 3f 83 05 81 3f c5 6a 77 3f 38 00 78 3f
       0.98025227 1.0079807 0.9664729 0.96875334
000220 2d 64 80 3f 23 b8 7e 3f 38 5c 7f 3f e6 ae 7a 3f
       1.0030571 0.9949972 0.9975009 0.97923124
000230 91 55 7b 3f f3 98 81 3f 96 31 80 3f 5a ef 71 3f
       0.9817744 1.0124801 1.0015132 0.94505847
000240 4a 51 7a 3f c3 0b 83 3f bd 60 77 3f aa 8e 73 3f
       0.9778029 1.0237964 0.96631986 0.95139563
000250 f0 9e 83 3f 08 e6 7c 3f db 58 86 bc 10 ea dc bc
       1.0282879 0.987885 -0.016399791 -0.026967078
000260 2a 51 1b 3d 07 37 7d bc b1 ef 8d bb f2 9d 2d bc
       0.0379192 -0.015455014 -0.004331552 -0.010596739
000270 ce db 3e bc 5a d0 12 3c ec 39 df bc 08 70 82 bc
       -0.011649085 0.008960808 -0.027249299 -0.015922561
000280 79 71 01 bc 12 12 22 bc bb ef 8a 3c 93 f2 80 bc
       -0.007900589 -0.009892004 0.016960016 -0.015740668
000290 c5 bd 54 3c 4b 8f 4d 3c 26 15 8a 3a 52 f1 88 3c
       0.012984698 0.012546371 0.0010534867 0.016716633
0002a0 2f f7 59 3c 1c 28 b5 bb 70 6b 93 3a a7 9b 46 bc
       0.013303562 -0.005528463 0.0011247229 -0.012122071
0002b0 bd 30 b8 3c da 64 90 3c 06 5c a1 3b a2 22 b2 bc
       0.022484178 0.017626215 0.0049243 -0.02174503
0002c0 f6 a1 20 bc 30 f3 63 3c 96 f3 5e ba df 9b ac 3c
       -0.0098042395 0.013912961 -0.0008504925 0.021070419
0002d0 f8 9d a2 bc 3a 1a 15 bc bf f5 a0 3c ba 8b c9 bc
       -0.019850716 -0.009100491 0.01964843 -0.02460276
0002e0 0a ef 3e 3a 61 ab 34 3c bb 6a b2 bc 12 a8 84 bc
       0.00072835444 0.011027188 -0.021779409 -0.016193423
0002f0 82 de 6f bc 77 24 b3 3c 70 df b0 bc 07 b3 8d 3c
       -0.014640452 0.021867974 -0.021590918 0.017297281
000300 59 55 20 bb 64 df 86 3c 08 0e 1c bc a5 de df bc
       -0.0024464934 0.016463943 -0.00952483 -0.027327845
000310 b5 64 15 bc 08 18 7d 3b c8 ed 0a 3d d9 15 1f 3c
       -0.009118249 0.003861906 0.033918172 0.009709799
000320 00 00 00 00 00 00 00 00 00 00 00 00 00 00 00 00
       0.0 0.0 0.0 0.0
000330 00 00 00 00 00 00 00 00 00 00 00 00 00 00 00 00
       0.0 0.0 0.0 0.0
000340 00 00 00 00 00 00 00 00 00 00 00 00 00 00 00 00
       0.0 0.0 0.0 0.0
000350 00 00 00 00 00 00 00 00 00 00 00 00 00 00 00 00
       0.0 0.0 0.0 0.0
000360 00 00 00 00 00 00 00 00 00 00 00 00 00 00 00 00
       0.0 0.0 0.0 0.0
000370 00 00 00 00 00 00 00 00 00 00 00 00 00 00 00 00
       0.0 0.0 0.0 0.0
000380 00 00 00 00 00 00 00 00 00 00 00 00 00 00 00 00
       0.0 0.0 0.0 0.0
000390 00 00 00 00 00 00 00 00 00 00 00 00 00 00 00 00
       0.0 0.0 0.0 0.0
0003a0 00 00 00 00 00 00 00 00 00 00 00 00 00 00 00 00
       0.0 0.0 0.0 0.0
0003b0 00 00 00 00 00 00 00 00 00 00 00 00 00 00 00 00
       0.0 0.0 0.0 0.0
0003c0 00 00 00 00 00 00 00 00 00 00 00 00 00 00 00 00
       0.0 0.0 0.0 0.0
0003d0 00 00 00 00 00 00 00 00 00 00 00 00 00 00 00 00
       0.0 0.0 0.0 0.0
0003e0 00 00 00 00 00 00 00 00 00 00 00 00 00 00 00 00
       0.0 0.0 0.0 0.0
0003f0 00 00 00 00 00 00 00 00 00 00 00 00 00 00 00 00
       0.0 0.0 0.0 0.0

B0__43 f4 [1, 400]
000000 e8 63 a6 3a 26 9f ff bb 12 c0 a0 bc 5b e0 7b 3c
       0.0012694569 -0.0078009544 -0.019622836 0.015373315
000010 77 92 1c 3d 7f 09 ea 3b c7 7a cc 3c f3 40 68 3d
       0.038225617 0.0071422453 0.024960889 0.056702565
000020 21 51 88 3c ae 5f 84 3c 62 77 85 3d cc 3f 38 3d
       0.016640248 0.016158905 0.06516911 0.044982716
000030 16 cc 84 3c 2f 44 a8 3d e0 e7 ea 3b 07 9b 5d 3c
       0.016210597 0.0821613 0.007168755 0.013525731
000040 a0 4a fb 3d 69 e0 cf ba 2b 94 9b 3d 25 c6 d4 3b
       0.12270093 -0.0015859726 0.0759662 0.006493347
000050 d1 87 f5 bb c4 5f 85 ba d7 a4 75 3c 7d 50 96 ba
       -0.007492997 -0.0010175635 0.014992914 -0.0011468079
000060 7a dd 87 3d 7f e5 90 3d bb d4 75 bb 98 18 9a 3c
       0.0663404 0.07075023 -0.003751083 0.018810555
000070 7f 00 cc bc 29 21 cd 3d 3a 17 87 3c 30 9b 88 3d
       -0.02490258 0.100160904 0.016490567 0.06670225
000080 49 69 11 3c 4d c3 ad 3c 4a 2a f6 3b 5a 1e 28 bc
       0.0088752 0.02121129 0.0075123655 -0.010261143
000090 30 9d 05 bb 67 38 d4 3c 0c d6 92 3c 3a e1 16 3d
       -0.002038788 0.025905801 0.017924331 0.036835887
0000a0 c0 f1 fa 3a 25 79 58 3c ab 21 a3 3c 6f 0b 05 3c
       0.0019145533 0.013212477 0.019913515 0.008120402
0000b0 64 d4 ba 3c 4f ef a5 3c cd e8 c8 3c 86 ff 87 3c
       0.022806354 0.020255713 0.02452507 0.016601335
0000c0 bb 5d a2 3b 45 37 b9 3d 09 ed 40 bb de 57 bc bb
       0.004955021 0.09043745 -0.002943816 -0.0057477793
0000d0 cc 98 ca bc d4 ea c0 3c 4d 1b 0b 3d 3d 80 e2 3b
       -0.024731062 0.023549475 0.033961583 0.00691226
0000e0 e2 2d ca 3c d5 40 50 3d 49 36 28 3c 26 34 6a 3c
       0.024680082 0.05084308 0.010266849 0.01429466
0000f0 a7 0b 87 3d f9 f0 30 3d 7f f1 90 3c bd 6b 80 3d
       0.065940194 0.04319856 0.01769328 0.062705494
000100 f4 76 56 3c 36 23 76 3c 56 98 ec 3d 9f fc 74 ba
       0.013089884 0.015023043 0.11552493 -0.0009345505
000110 31 4b 9f 3d 31 11 31 3b e7 29 e5 bb 26 4a 33 3a
       0.077780135 0.0027018304 -0.0069935205 0.0006839357
000120 17 5d 25 3c de fa 31 bb 1b 25 88 3d 68 cd 85 3d
       0.010092995 -0.0027157585 0.06647702 0.06533319
000130 0d 5d 9e bb 00 d2 b0 3c 8f f4 d2 bc 5e f0 ad 3d
       -0.00483287 0.02158451 -0.02575138 0.08493112
000140 4d ca aa 3c 0c ec 8c 3d 09 85 bb bb c5 23 15 3d
       0.020848418 0.0688096 -0.005722646 0.036411066
000150 39 c1 86 3b 37 5f 30 bc b2 2c ef 3a a4 16 be 3c
       0.0041123894 -0.0107648885 0.0018247573 0.023204155
000160 6c 65 24 3c ed ea 2c 3d 04 6d f9 ba e5 1e ed 3b
       0.0100339465 0.04221623 -0.0019029682 0.007236349
000170 9b 05 89 3c 41 4a a8 3b 2d 2c ce 3c 12 4e 2d 3c
       0.016726306 0.005135805 0.025167549 0.010577695
000180 8c da a1 3c 27 fa 97 3c 6f f0 3e 3b 53 6b 9a 3d
       0.019757532 0.0185519 0.0029135009 0.07540002
000190 8c c2 7b 3f 92 c5 7b 3f 73 f2 79 3f 3f 19 80 3f
       0.9834373 0.98348343 0.97635573 1.0007704
0001a0 55 b5 81 3f ea 63 80 3f 09 ca 7e 3f 87 c7 81 3f
       1.0133463 1.0030491 0.9952703 1.0139016
0001b0 b1 3c 82 3f f2 1f 81 3f 20 96 82 3f a1 ac 7e 3f
       1.0174772 1.0087874 1.0202065 0.9948216
0001c0 10 7a 77 3f f3 3a 80 3f 86 a1 7c 3f e8 4f 7c 3f
       0.9667063 1.001799 0.98683965 0.9855943
0001d0 fb b4 7d 3f 91 d5 7b 3f 7f 8f 7a 3f 43 1d 7d 3f
       0.9910428 0.9837275 0.9787521 0.98872775
0001e0 f3 75 7e 3f e2 13 7f 3f 14 40 81 3f cb db 7a 3f
       0.99398726 0.99639714 1.009768 0.9799163
0001f0 3f 8b 78 3f 02 db 74 3f b9 0f 7c 3f 32 f7 77 3f
       0.9708747 0.9564668 0.9846149 0.96861565
000200 d9 d0 76 3f 07 cc 7a 3f 59 9d 80 3f 54 1a 7e 3f
       0.96412426 0.9796757 1.0048019 0.99258924
000210 24 56 7f 3f be 40 81 3f ce fe 80 3f cd 77 7c 3f
       0.99740815 1.0097883 1.007776 0.986203
000220 07 2c 7a 3f 80 4d 82 3f 9c 35 82 3f 08 db 7e 3f
       0.9772343 1.0179901 1.017261 0.99552965
000230 12 a8 7f 3f a9 28 81 3f 70 f8 7e 3f 9e ab 80 3f
       0.9986583 1.0090533 0.99597836 1.0052373
000240 14 fc 6f 3f a1 c2 82 3f 8c 0e 80 3f 86 a4 7f 3f
       0.93744016 1.0215646 1.0004439 0.9986042
000250 0b e1 7e 3f fa d6 7d 3f 61 3f d3 bc b4 69 ac 3c
       0.9956214 0.99156153 -0.025787057 0.021046497
000260 56 7c 21 3c db 9c 54 3c 85 34 fe 3b df 8a ea bb
       0.009856304 0.01297685 0.0077577257 -0.007157668
000270 eb 56 a4 3c e1 73 cc ba 47 94 a2 3a 58 f9 ad 3c
       0.020060977 -0.00155985 0.0012403809 0.02123706
000280 d1 85 4e bc 91 fc 0f bc cc 11 1e 3c 03 ca d2 3a
       -0.0126051465 -0.008788244 0.009647798 0.0016081933
000290 32 16 bc 3c ad 4e 88 bc 8c 26 87 3c dc e0 a7 3c
       0.022959802 -0.016639078 0.016497873 0.020492963
0002a0 36 33 60 39 ed fc b4 3c 89 9d 2d 3c ba 49 5a 3b
       0.00021381382 0.02209326 0.010596641 0.0033308105
0002b0 20 bc 67 bc bc ca f4 bc 4f a2 6b bc 82 a9 b3 bc
       -0.014143974 -0.029881828 -0.014381959 -0.021931414
0002c0 dd 7b c2 3c 6e bf d2 bb 1f 49 a0 39 76 29 51 ba
       0.023740703 -0.0064315116 0.00030572058 -0.00079788954
0002d0 14 d8 b8 3b 87 bc 13 bc 40 c8 f6 3b 88 a3 1c 3d
       0.005640993 -0.009017116 0.007531196 0.038241893
0002e0 3a 6e 66 bc 8f bb b2 3b 2e fa ae 3c 1a c8 bd bb
       -0.014064366 0.0054544876 0.02135953 -0.005791676
0002f0 b1 84 8c bc 01 a3 cc 3b 2f c7 22 3c cd df 3f ba
       -0.017153116 0.0062450175 0.009935184 -0.00073194207
000300 bb 15 71 3c 1f f9 0a bc 16 a4 2b bc 90 e2 9f bc
       0.014714654 -0.008482247 -0.010476133 -0.019517213
000310 f2 df ab bb 4c aa a2 b7 71 17 af 3b 77 5d 13 3b
       -0.005245202 -1.9391206e-05 0.0053433706 0.002248613
000320 00 00 00 00 00 00 00 00 00 00 00 00 00 00 00 00
       0.0 0.0 0.0 0.0
000330 00 00 00 00 00 00 00 00 00 00 00 00 00 00 00 00
       0.0 0.0 0.0 0.0
000340 00 00 00 00 00 00 00 00 00 00 00 00 00 00 00 00
       0.0 0.0 0.0 0.0
000350 00 00 00 00 00 00 00 00 00 00 00 00 00 00 00 00
       0.0 0.0 0.0 0.0
000360 00 00 00 00 00 00 00 00 00 00 00 00 00 00 00 00
       0.0 0.0 0.0 0.0
000370 00 00 00 00 00 00 00 00 00 00 00 00 00 00 00 00
       0.0 0.0 0.0 0.0
000380 00 00 00 00 00 00 00 00 00 00 00 00 00 00 00 00
       0.0 0.0 0.0 0.0
000390 00 00 00 00 00 00 00 00 00 00 00 00 00 00 00 00
       0.0 0.0 0.0 0.0
0003a0 00 00 00 00 00 00 00 00 00 00 00 00 00 00 00 00
       0.0 0.0 0.0 0.0
0003b0 00 00 00 00 00 00 00 00 00 00 00 00 00 00 00 00
       0.0 0.0 0.0 0.0
0003c0 00 00 00 00 00 00 00 00 00 00 00 00 00 00 00 00
       0.0 0.0 0.0 0.0
0003d0 00 00 00 00 00 00 00 00 00 00 00 00 00 00 00 00
       0.0 0.0 0.0 0.0
0003e0 00 00 00 00 00 00 00 00 00 00 00 00 00 00 00 00
       0.0 0.0 0.0 0.0
0003f0 00 00 00 00 00 00 00 00 00 00 00 00 00 00 00 00
       0.0 0.0 0.0 0.0
